warmup_model_min_max.pth (torch, 2998 bytes, 6 tensors)

fc1_1.weight f4 [3, 1]
00000000: bb25 4d3d 1b85 92bf f72e 59bf
0.05008481 -1.144687 -0.8483729

fc1_1.bias f4 [3]
00000000: 0000 0000 80ee 4b3d 62bd b23b
0.0 0.049788 0.005454705

fc1_2.bias f4 [3]
00000000: 0000 0000 80ee 4b3d 62bd b23b
0.0 0.049788 0.005454705

fc1_2.parametrizations.weight.original f4 [3, 1]
00000000: b88e 813f 7955 503e 2f7e 033f
1.0121679 0.20345105 0.51364416

fc1_3.weight f4 [3, 1]
00000000: a640 de3e 353f 4fbf 6716 52bd
0.43408698 -0.8095582 -0.051290896

fc1_3.bias f4 [3]
00000000: 0000 0000 80ee 4b3d 62bd b23b
0.0 0.049788 0.005454705
